…
hc_test_index:  [70, 71, 72, 73, 74, 75, 76, 77, 78, 79, 170, 171, 172, 173, 174, 175, 176, 177, 178, 179, 60, 61, 62, 63, 64, 65, 66, 67, 68, 69]
(500, 1)
(60, 1)
(500, 99, 6)
(60, 99, 6)
(500, 99, 6)
(60, 99, 6)
(500, 99, 6)
(60, 99, 6)
(500, 99, 6)
(60, 99, 6)
(500, 99, 6)
(60, 99, 6)
(500, 99, 6)
(60, 99, 6)
create model and train model
Building model
compiling model
_________________________________________________________________
Layer (type)                 Output Shape              Param #   
=================================================================
bidirectional_1 (Bidirection (None, 99, 100)           64200     
_________________________________________________________________
bidirectional_2 (Bidirection (None, 99, 100)           120600    
_________________________________________________________________
flatten_1 (Flatten)          (None, 9900)              0         
_________________________________________________________________
dense_1 (Dense)              (None, 6)                 59406     
=================================================================
Total params: 244,206
Trainable params: 244,206
Non-trainable params: 0
_________________________________________________________________
Building model
compiling model
_________________________________________________________________
Layer (type)                 Output Shape              Param #   
=================================================================
bidirectional_3 (Bidirection (None, 99, 100)           64200     
_________________________________________________________________
bidirectional_4 (Bidirection (None, 99, 100)           120600    
_________________________________________________________________
flatten_2 (Flatten)          (None, 9900)              0         
_________________________________________________________________
dense_2 (Dense)              (None, 6)                 59406     
=================================================================
Total params: 244,206
Trainable params: 244,206
Non-trainable params: 0
_________________________________________________________________
Building model
compiling model
_________________________________________________________________
Layer (type)                 Output Shape              Param #   
=================================================================
bidirectional_5 (Bidirection (None, 99, 100)           64200     
_________________________________________________________________
bidirectional_6 (Bidirection (None, 99, 100)           120600    
_________________________________________________________________
flatten_3 (Flatten)          (None, 9900)              0         
_________________________________________________________________
dense_3 (Dense)              (None, 6)                 59406     
=================================================================
Total params: 244,206
Trainable params: 244,206
Non-trainable params: 0
_________________________________________________________________
Building model
compiling model
_________________________________________________________________
Layer (type)                 Output Shape              Param #   
=================================================================
bidirectional_7 (Bidirection (None, 99, 100)           64200     
_________________________________________________________________
bidirectional_8 (Bidirection (None, 99, 100)           120600    
_________________________________________________________________
flatten_4 (Flatten)          (None, 9900)              0         
_________________________________________________________________
dense_4 (Dense)              (None, 6)                 59406     
=================================================================
Total params: 244,206
Trainable params: 244,206
Non-trainable params: 0
_________________________________________________________________
Building model
compiling model
_________________________________________________________________
Layer (type)                 Output Shape              Param #   
=================================================================
bidirectional_9 (Bidirection (None, 99, 100)           64200     
_________________________________________________________________
bidirectional_10 (Bidirectio (None, 99, 100)           120600    
_________________________________________________________________
flatten_5 (Flatten)          (None, 9900)              0         
_________________________________________________________________
dense_5 (Dense)              (None, 6)                 59406     
=================================================================
Total params: 244,206
Trainable params: 244,206
Non-trainable params: 0
_________________________________________________________________
Building model
compiling model
_________________________________________________________________
Layer (type)                 Output Shape              Param #   
=================================================================
bidirectional_11 (Bidirectio (None, 99, 100)           64200     
_________________________________________________________________
bidirectional_12 (Bidirectio (None, 99, 100)           120600    
_________________________________________________________________
flatten_6 (Flatten)          (None, 9900)              0         
_________________________________________________________________
dense_6 (Dense)              (None, 6)                 59406     
=================================================================
Total params: 244,206
Trainable params: 244,206
Non-trainable params: 0
_________________________________________________________________
sam
_________________________________________________________________
Layer (type)                 Output Shape              Param #   
=================================================================
dense_7 (Dense)              (None, 100)               1300      
_________________________________________________________________
dropout_1 (Dropout)          (None, 100)               0         
_________________________________________________________________
dense_8 (Dense)              (None, 100)               10100     
_________________________________________________________________
dropout_2 (Dropout)          (None, 100)               0         
=================================================================
Total params: 11,400
Trainable params: 11,400
Non-trainable params: 0
_________________________________________________________________
ledalab
_________________________________________________________________
Layer (type)                 Output Shape              Param #   
=================================================================
dense_9 (Dense)              (None, 10)                130       
_________________________________________________________________
dropout_3 (Dropout)          (None, 10)                0         
_________________________________________________________________
dense_10 (Dense)             (None, 10)                110       
_________________________________________________________________
dropout_4 (Dropout)          (None, 10)                0         
=================================================================
Total params: 240
Trainable params: 240
Non-trainable params: 0
_________________________________________________________________
ledalab
_________________________________________________________________
Layer (type)                 Output Shape              Param #   
=================================================================
dense_11 (Dense)             (None, 10)                130       
_________________________________________________________________
dropout_5 (Dropout)          (None, 10)                0         
_________________________________________________________________
dense_12 (Dense)             (None, 10)                110       
_________________________________________________________________
dropout_6 (Dropout)          (None, 10)                0         
=================================================================
Total params: 240
Trainable params: 240
Non-trainable params: 0
_________________________________________________________________
ledalab
_________________________________________________________________
Layer (type)                 Output Shape              Param #   
=================================================================
dense_13 (Dense)             (None, 10)                130       
_________________________________________________________________
dropout_7 (Dropout)          (None, 10)                0         
_________________________________________________________________
dense_14 (Dense)             (None, 10)                110       
_________________________________________________________________
dropout_8 (Dropout)          (None, 10)                0         
=================================================================
Total params: 240
Trainable params: 240
Non-trainable params: 0
_________________________________________________________________
ledalab
_________________________________________________________________
Layer (type)                 Output Shape              Param #   
=================================================================
dense_15 (Dense)             (None, 10)                130       
_________________________________________________________________
dropout_9 (Dropout)          (None, 10)                0         
_________________________________________________________________
dense_16 (Dense)             (None, 10)                110       
_________________________________________________________________
dropout_10 (Dropout)         (None, 10)                0         
=================================================================
Total params: 240
Trainable params: 240
Non-trainable params: 0
_________________________________________________________________
ledalab
_________________________________________________________________
Layer (type)                 Output Shape              Param #   
=================================================================
dense_17 (Dense)             (None, 10)                130       
_________________________________________________________________
dropout_11 (Dropout)         (None, 10)                0         
_________________________________________________________________
dense_18 (Dense)             (None, 10)                110       
_________________________________________________________________
dropout_12 (Dropout)         (None, 10)                0         
=================================================================
Total params: 240
Trainable params: 240
Non-trainable params: 0
_________________________________________________________________
ledalab
_________________________________________________________________
Layer (type)                 Output Shape              Param #   
=================================================================
dense_19 (Dense)             (None, 10)                130       
_________________________________________________________________
dropout_13 (Dropout)         (None, 10)                0         
_________________________________________________________________
dense_20 (Dense)             (None, 10)                110       
_________________________________________________________________
dropout_14 (Dropout)         (None, 10)                0         
=================================================================
Total params: 240
Trainable params: 240
Non-trainable params: 0
_________________________________________________________________
['loss', 'acc']
Train on 500 samples, validate on 60 samples
Epoch 1/100
2022-11-13 15:15:22.968724: I tensorflow/core/platform/cpu_feature_guard.cc:141] Your CPU supports instructions that this TensorFlow binary was not compiled to use: AVX2
…
